models/mnist_convnet_quant.tflite (tflite, 5944 bytes, 3 tensors)

model_1/dense/MatMul i1 [10, 200] scale=0.013641952 zero_point=0
-0.10913561 0.0 0.06820976 -0.17734537 0.10913561 0.013641952 -0.286481 0.040925853
-0.2591971 -0.16370341 0.06820976 -0.081851706 0.054567806 0.013641952 -0.17734537 0.040925853
-0.054567806 -0.054567806 -0.013641952 0.0 0.054567806 0.054567806 -0.081851706 -0.027283903
0.013641952 -0.17734537 -0.040925853 0.081851706 0.040925853 0.013641952 0.081851706 -0.081851706
0.013641952 -0.013641952 -0.054567806 0.013641952 -0.2591971 0.081851706 -0.040925853 -0.12277757
-0.15006147 -0.17734537 0.17734537 -0.12277757 0.081851706 0.20462927 0.040925853 0.15006147
-0.21827123 -0.19098732 0.054567806 -0.13641952 0.027283903 0.06820976 0.06820976 0.10913561
0.081851706 -0.013641952 -0.16370341 0.06820976 0.0 -0.054567806 0.0 -0.19098732
0.21827123 -0.09549366 -0.2591971 0.09549366 -0.10913561 -0.013641952 -0.040925853 -0.17734537
-0.15006147 -0.15006147 -0.3137649 0.10913561 -0.20462927 0.013641952 0.19098732 -0.36833268
-0.24555513 -0.32740682 -0.09549366 -0.286481 0.12277757 -0.286481 0.0 -0.013641952
-0.19098732 -0.19098732 -0.32740682 -0.27283904 0.12277757 -0.5320361 0.12277757 -0.054567806
0.081851706 0.081851706 0.013641952 -0.21827123 -0.15006147 -0.30012295 0.027283903 0.20462927
0.30012295 0.06820976 0.16370341 -0.13641952 0.081851706 -0.23191318 0.013641952 -0.040925853
-0.49111027 -0.5320361 -0.40925854 -0.10913561 0.06820976 -0.32740682 0.19098732 -0.027283903
-0.06820976 -0.4501844 -0.34104878 -0.040925853 0.16370341 -0.7775912 0.040925853 -0.40925854
-0.286481 -0.43654245 -0.12277757 0.06820976 0.081851706 -0.19098732 0.10913561 0.16370341
-0.15006147 -0.15006147 -0.027283903 0.040925853 0.040925853 0.09549366 -0.027283903 0.27283904
-0.10913561 -0.21827123 -0.054567806 -0.040925853 0.20462927 0.24555513 0.0 0.06820976
-0.572962 -0.06820976 0.17734537 -0.12277757 0.24555513 -0.58660394 0.16370341 0.12277757
0.0 -0.16370341 -0.16370341 -0.013641952 0.054567806 -0.5456781 0.06820976 -1.5551825
-0.013641952 -0.09549366 -0.15006147 0.040925853 -0.5456781 -0.081851706 -0.027283903 -0.2591971
-0.027283903 0.081851706 -0.027283903 0.081851706 0.040925853 0.15006147 -0.4774683 -0.20462927
0.0 0.081851706 0.027283903 0.06820976 -0.09549366 0.13641952 -0.83215904 0.10913561
-0.027283903 0.15006147 0.09549366 -0.054567806 0.15006147 -0.6275298 -0.6684556 0.09549366
-0.054567806 0.15006147 -0.12277757 -0.06820976 -0.55932003 -0.013641952 0.13641952 -0.32740682
-0.027283903 -0.013641952 -0.40925854 -0.06820976 0.013641952 -0.09549366 0.15006147 -0.286481
-0.081851706 0.13641952 -0.21827123 -0.21827123 0.09549366 0.013641952 0.21827123 -0.013641952
0.013641952 0.13641952 -0.12277757 -0.4501844 0.09549366 -0.040925853 0.17734537 0.19098732
-0.3956166 0.16370341 -0.32740682 -0.5456781 0.23191318 -0.040925853 0.19098732 0.20462927
0.027283903 0.040925853 -0.32740682 0.027283903 -0.4501844 0.027283903 0.0 -0.2591971
-0.06820976 -0.054567806 0.040925853 -0.040925853 -0.13641952 -0.040925853 -0.286481 0.0
00000000: f800 05f3 0801 eb03 edf4 05fa 0401 f303
00000010: fcfc ff00 0404 fafe 01f3 fd06 0301 06fa
00000020: 01ff fc01 ed06 fdf7 f5f3 0df7 060f 030b
00000030: f0f2 04f6 0205 0508 06ff f405 00fc 00f2
00000040: 10f9 ed07 f8ff fdf3 f5f5 e908 f101 0ee5
00000050: eee8 f9eb 09eb 00ff f2f2 e8ec 09d9 09fc
00000060: 0606 01f0 f5ea 020f 1605 0cf6 06ef 01fd
00000070: dcd9 e2f8 05e8 0efe fbdf e7fd 0cc7 03e2
00000080: ebe0 f705 06f2 080c f5f5 fe03 0307 fe14
00000090: f8f0 fcfd 0f12 0005 d6fb 0df7 12d5 0c09
000000a0: 00f4 f4ff 04d8 058e fff9 f503 d8fa feed
000000b0: fe06 fe06 030b ddf1 0006 0205 f90a c308
000000c0: fe0b 07fc 0bd2 cf07 fc0b f7fb d7ff 0ae8
000000d0: feff e2fb 01f9 0beb fa0a f0f0 0701 10ff
000000e0: 010a f7df 07fd 0d0e e30c e8d8 11fd 0e0f
000000f0: 0203 e802 df02 00ed fbfc 03fd f6fd eb00

model_1/conv2d_1/Conv2D i1 [8, 3, 3, 4] scale=0.0070744962 zero_point=0
-0.0070744962 -0.11319194 0.028297985 0.07074496 -0.0141489925 0.0070744962 0.063670464 0.07074496
0.049521472 0.08489396 0.0 0.063670464 0.11319194 -0.13441543 0.0141489925 -0.21930939
-0.03537248 -0.07781946 0.0070744962 -0.16271341 0.0141489925 -0.04244698 -0.02122349 0.14148992
0.049521472 0.02122349 -0.07074496 0.14148992 0.2051604 -0.03537248 -0.028297985 -0.08489396
-0.049521472 0.091968454 -0.02122349 -0.33957583 -0.0070744962 -0.0141489925 0.063670464 0.1768624
0.03537248 -0.049521472 0.07781946 0.05659597 -0.049521472 -0.86308855 0.091968454 0.12026644
0.03537248 0.02122349 -0.063670464 -0.24760737 0.08489396 0.14856443 -0.19808589 -0.091968454
-0.091968454 0.07074496 -0.028297985 -0.43861878 -0.10611744 -0.049521472 0.02122349 -0.099042945
-0.099042945 -0.05659597 0.1910114 0.12026644 0.14148992 -0.08489396 0.063670464 0.0070744962
0.02122349 0.02122349 -0.03537248 -0.05659597 0.0070744962 0.04244698 0.08489396 0.0070744962
-0.07781946 -0.091968454 0.07781946 0.1910114 0.13441543 -0.33250132 -0.07781946 0.099042945
0.08489396 -0.24053288 0.02122349 -0.099042945 -0.091968454 0.05659597 -0.13441543 -0.28297985
0.099042945 0.063670464 0.091968454 -0.16978791 -0.04244698 0.099042945 -0.063670464 -0.10611744
-0.14148992 0.07781946 -0.049521472 0.02122349 -0.04244698 0.03537248 0.028297985 -0.02122349
-0.028297985 -0.07074496 0.063670464 0.0141489925 -0.028297985 0.12734093 -0.04244698 -0.028297985
-0.0141489925 -0.028297985 -0.028297985 0.05659597 0.028297985 0.08489396 -0.12026644 -0.07074496
0.0141489925 0.04244698 -0.07074496 0.0141489925 0.03537248 -0.04244698 -0.04244698 -0.063670464
0.049521472 0.03537248 -0.21930939 0.04244698 0.091968454 0.05659597 -0.08489396 0.0
-0.02122349 -0.07781946 -0.091968454 0.0070744962 -0.2051604 -0.028297985 0.11319194 -0.099042945
-0.25468186 0.10611744 0.03537248 0.063670464 -0.18393691 -0.0070744962 0.049521472 0.1768624
-0.16271341 -0.0070744962 0.049521472 -0.063670464 -0.1910114 0.07074496 0.04244698 0.063670464
-0.3537248 0.0141489925 0.063670464 -0.19808589 -0.12026644 -0.04244698 0.03537248 0.091968454
-0.14856443 -0.0141489925 0.063670464 -0.091968454 0.14148992 0.12026644 -0.063670464 -0.3820228
0.028297985 -0.04244698 -0.08489396 -0.049521472 0.04244698 -0.14856443 0.05659597 -0.02122349
0.028297985 -0.05659597 -0.04244698 0.028297985 0.10611744 0.0141489925 -0.03537248 -0.0070744962
0.028297985 0.028297985 -0.30420333 -0.22638388 -0.0141489925 -0.028297985 0.0141489925 0.12026644
0.03537248 -0.0141489925 0.07781946 0.0070744962 -0.0070744962 0.03537248 -0.05659597 0.14856443
0.0141489925 0.0 -0.063670464 -0.07074496 -0.2051604 -0.18393691 -0.04244698 0.14148992
0.0 -0.24760737 -0.028297985 -0.028297985 0.0 -0.099042945 0.07074496 -0.12026644
-0.028297985 0.11319194 0.0070744962 0.063670464 0.0 -0.26175636 -0.89846104 0.0
-0.03537248 -0.24053288 0.18393691 -0.16271341 -0.0070744962 0.063670464 0.04244698 0.29712886
-0.5235127 -0.10611744 -0.25468186 -0.12734093 0.03537248 -0.05659597 0.12026644 -0.04244698
00000000: fff0 040a fe01 090a 070c 0009 10ed 02e1
00000010: fbf5 01e9 02fa fd14 0703 f614 1dfb fcf4
00000020: f90d fdd0 fffe 0919 05f9 0b08 f986 0d11
00000030: 0503 f7dd 0c15 e4f3 f30a fcc2 f1f9 03f2
00000040: f2f8 1b11 14f4 0901 0303 fbf8 0106 0c01
00000050: f5f3 0b1b 13d1 f50e 0cde 03f2 f308 edd8
00000060: 0e09 0de8 fa0e f7f1 ec0b f903 fa05 04fd
00000070: fcf6 0902 fc12 fafc fefc fc08 040c eff6
00000080: 0206 f602 05fa faf7 0705 e106 0d08 f400
00000090: fdf5 f301 e3fc 10f2 dc0f 0509 e6ff 0719
000000a0: e9ff 07f7 e50a 0609 ce02 09e4 effa 050d
000000b0: ebfe 09f3 1411 f7ca 04fa f4f9 06eb 08fd
000000c0: 04f8 fa04 0f02 fbff 0404 d5e0 fefc 0211
000000d0: 05fe 0b01 ff05 f815 0200 f7f6 e3e6 fa14
000000e0: 00dd fcfc 00f2 0aef fc10 0109 00db 8100
000000f0: fbde 1ae9 ff09 062a b6f1 dcee 05f8 11fa

model_1/conv2d/Conv2D i1 [4, 3, 3, 1] scale=0.0019289111 zero_point=0
0.0019289111 0.01928911 0.042436045 -0.040507134 0.01928911 0.048222777 -0.08101427 -0.07136971
-0.07329862 -0.0038578222 -0.0038578222 -0.021218022 0.0 -0.063654065 -0.0077156443 0.0173602
0.03857822 0.054009512 -0.24497171 -0.063654065 0.0115734665 -0.08487209 0.055938423 0.025075844
-0.07136971 -0.015431289 0.030862577 0.013502378 0.0038578222 0.0173602 0.0173602 0.013502378
0.0077156443 0.0077156443 0.0173602 0.023146933
00000000: 010a 16eb 0a19 d6db dafe fef5 00df fc09
00000010: 141c 81df 06d4 1d0d dbf8 1007 0209 0907
00000020: 0404 090c
